diabetes.pt (torch_old, 6748 bytes, 6 tensors)

weight f4 [20, 8]
00000000: 78fd 4d3f 659c 2abf b959 483e 0f01 e1bd
00000010: 2342 27bf 78e0 cf3e 6603 ff3e 4302 fe3d
00000020: a160 88be 7588 893e a408 a8be 7b24 49be
00000030: b744 793e 9c92 41be fb68 423e a13e df3d
00000040: 9b50 2ebe 1493 d2bd 8e09 333d 72f7 cbbe
00000050: 17a4 a93d 5b6c 3ebe 0eb7 e63e 62e6 8abe
00000060: 4327 c1be 8b37 83bc ab02 1d3e 574d 263e
00000070: e6f7 d63c 390c 453e a1df dabf ef7a d1be
00000080: a341 873e ecd1 d7bd 8449 f9bd 96cb fcbd
00000090: cc5b 3cbe 0011 7cbc 5841 43be 2429 d23d
000000a0: 1db2 01bf a2dc 6e3e 1afb c7bd 6c27 e53c
000000b0: d923 c23d 9b35 8fbe 9f0d a1bf f99e 15bf
000000c0: 30a6 03bf 72cd cfbe 7d42 85be f1f9 b3be
000000d0: 0ce7 c83d 33a4 743e 2431 cabf d43f ff3e
000000e0: 99fb 3ebd a0d5 943e e624 23be bfe2 9b3e
000000f0: e422 593e ab8c 2dbe ae18 a23e f29f 813e
00000100: 90a4 d3be 5479 d83d 09bf c0be ca39 6f3e
00000110: 84a3 333d 079e d8be 3b18 403f 9678 ed3e
00000120: 2386 1abd 05f1 273e 95a0 833d db4e babe
00000130: 8fb4 63bc f3c9 a4be 7fa7 aebf 76ff 833e
00000140: 114d 22be a653 f3be 80ee 873e 2c85 2c3e
00000150: ba95 e53d e358 85be 2a19 ba3f 378b 56bf
00000160: 50c5 16be e510 8c3e a199 c7be 1637 0fbf
00000170: 8db2 09be 9546 583e e7b6 f8be 1ed4 71be
00000180: 5df7 133f 7c88 4a3e bb6d a4be 8e65 c63e
00000190: 92fb 393e 0e74 ccbd 6040 4cbf e302 afbe
000001a0: 3a2c 423d 4e73 6fbe 0ef8 993e 20ca 993e
000001b0: c44c acbd b793 82be 5dc1 9d3c 2d1f 813e
000001c0: e22d 32bf 8177 25bc 2a37 b93d ae81 933e
000001d0: cac7 8f3e f796 90be eba1 7e3f ff91 9fbe
000001e0: b14e 73be 4d5a a33e f4a0 043d f28a 263e
000001f0: ca4d 4ebe 5093 d83d da45 413f 5af1 853e
00000200: 386e 5dbe 1dd6 663e 85ad 733c 064b 713c
00000210: c270 f0bd ce86 64be d65b 4bbf cacd 863e
00000220: 0013 da3d 337c 7cbe 50e3 043d 98ee 39bd
00000230: 988e 9c3d 4d18 0ebe f67e 603e 45cc 98be
00000240: 7b06 4fbc 0708 38be f751 8d3e 998a 95be
00000250: 5d4b a23d 60b6 9b3e 984c c2bf 4730 6dbe
00000260: a374 113f 7626 34be 2cfc 463e daa7 20be
00000270: d0d0 bf3d 6ae6 be3d 7ac5 813f eb3a f5bd
0.8046489 -0.6664489 0.19565476 -0.1098653 -0.6533529 0.40600944 0.4980728 0.12402775
-0.26636222 0.2686192 -0.32819092 -0.19642822 0.24342619 -0.18903583 0.1898536 0.109006174
-0.17022936 -0.10281959 0.043710284 -0.39837223 0.08283251 -0.18596022 0.45061535 -0.27128893
-0.37725267 -0.016017696 0.15333049 0.1624044 0.026241254 0.19242944 -1.7099496 -0.40914103
0.26417264 -0.10538086 -0.12172225 -0.123435184 -0.18394393 -0.0153849125 -0.19067895 0.10261753
-0.50662404 0.23326352 -0.09764691 0.0279729 0.09479494 -0.27970585 -1.2582282 -0.584457
-0.51425457 -0.4058643 -0.2602729 -0.35151628 0.09809694 0.23890762 -1.5796247 0.49853384
-0.04662666 0.29069233 -0.15932044 0.3044643 0.21204716 -0.16948192 0.31659454 0.2531734
-0.4133649 0.105700165 -0.37645748 0.23361889 0.043857113 -0.42308065 0.7503697 0.46381062
-0.03772558 0.16400535 0.06427113 -0.36388287 -0.013898029 -0.32185325 -1.3644866 0.2578084
-0.15849711 -0.47524756 0.2654915 0.16847676 0.11210199 -0.26044378 1.453893 -0.83806175
-0.14723706 0.2735664 -0.38984397 -0.5594343 -0.13447018 0.21120675 -0.48577043 -0.23616073
0.5779932 0.19778627 -0.32114968 0.38749355 0.18162373 -0.09983073 -0.7978573 -0.3418189
0.04740546 -0.23383829 0.30072063 0.30037022 -0.084130794 -0.25503322 0.019257242 0.25219098
-0.6960126 -0.010099293 0.09043725 0.28809875 0.28082114 -0.28240177 0.9946582 -0.31166074
-0.23760487 0.31904832 0.03238006 0.16263941 -0.20146862 0.10574973 0.7549721 0.261607
-0.21624076 0.22542615 0.014872913 0.01472736 -0.11740257 -0.22317049 -0.79437006 0.2632888
0.10648155 -0.24656753 0.032443345 -0.045393556 0.07644385 -0.13876458 0.21923432 -0.29843345
-0.012635822 -0.17971812 0.27601597 -0.29207304 0.07924531 0.3041258 -1.5179625 -0.23162948
0.568186 -0.17592797 0.19432133 -0.1568903 0.09366 0.09321292 1.013839 -0.11974128

bias f4 [20]
00000000: 4124 7cbe 6e7e a0bf bd77 b9be 0a5c eb3f
00000010: 3083 a43d 6b65 963e dc38 fabe 30ee d53e
00000020: ceb4 5c3f 2e2a f13f d93f b43d fccb ca3e
00000030: deff 77be fe5b cb3f db78 06bf 981e 99bf
00000040: 9084 9a3f 1822 62bd 831d 0a40 47d8 95be
-0.24623205 -1.2538583 -0.36224166 1.8387463 0.080328345 0.2937425 -0.48871505 0.41783285
0.86213386 1.8840997 0.088012405 0.39608753 -0.242187 1.5887449 -0.5252816 -1.1962461
1.2071705 -0.055208296 2.1580513 -0.2926657

weight f4 [20, 20]
00000000: 32d7 85be 11f7 a1bc 16c0 a23d 0b99 863e
00000010: 6055 38be a2bc a03d 887f 0abf 4cfb f33d
00000020: f75c 06be 97d2 143e 5482 a93f bb9a 533e
00000030: 5f5b 323c db4c 1b3d 078d ad3d e381 28be
00000040: 7ecd 343e 1a9e f4bd 816c a0bd aae0 373e
00000050: a1ef e13d 43b2 22bd c253 f83d effc 593e
00000060: e8af c23d db57 433e 72c1 18be b577 403d
00000070: e9f9 4bbe e6bd a63d f759 393f 78ef c03e
00000080: eb01 633d 61bd 52bc 6da4 62be c69b 62bd
00000090: 3a9f a83d 64a7 1fbe 9381 a83e df83 82bd
000000a0: eaad b23c 739c 723d dfa1 35bd b0a5 293d
000000b0: 1027 503e e063 453b aa6a cc3d 558b 86be
000000c0: 94ea d5bd 1f18 1dbe 4d0d 183e a2cc 423e
000000d0: 2e49 82bd bfb9 283d eb83 b13d 7bc0 12be
000000e0: 73ca 8b3c b20f 253e 051b 4ebe 6b89 58be
000000f0: 3fc2 9fbe 5558 db3c 997c 233d 4490 28be
00000100: d2fc 113e 6d6a 8fbe cb75 e2bd 764c 32be
00000110: ede6 833d 2ba8 afbe 5160 413e 35fb a6be
00000120: 5604 89bd f62b 1fbe c4c2 a5bd df60 c03d
00000130: dd88 b6bc 50e3 423d 5525 7d3d 45b7 863d
00000140: 26bc f63e 66f3 7fbd 8b64 c9bd dec1 e4bd
00000150: 2008 3bbe 7c2f 2abf a1e9 2a3f d003 273e
00000160: 2f48 9bbf e8e9 11be 5283 50bf 7847 2f3d
00000170: cc6c 81be d42f 4dbd 00d0 5b3e 47ab 2ebd
00000180: d66b 0abe 30f3 39bc e00f f5bc 4449 093e
00000190: 60eb e23e 2160 0e3d 84e6 8bbd 15da 5bbe
000001a0: c0e0 bdbb 4b36 bc3d d96a cb3e 8479 3b3e
000001b0: 64e6 983d d085 073d 3b50 80bf 2e98 0cbe
000001c0: e15f 2abe 0d80 1b3e 4b01 b9bd 88a2 d23d
000001d0: 9be2 853d 857a 26be 9211 c8bc 0c43 163d
000001e0: 4d7e 24be daa2 e0bc ef0d ed3c 2c78 bfbd
000001f0: b4a5 d83d 421e 08bd 9d89 09bf 2f7a 4b3e
00000200: 994a 0e3d a185 b6bd b34c 903f 2ddf e33d
00000210: f289 c3bd ead2 c3bd baf3 f5bc a06e 0dbe
00000220: ca58 0b3e cede 1e3e 6a6c 773e 5976 ed3d
00000230: b490 343e f664 3d3d e8b8 f5bc b880 b33e
00000240: bef5 fbbd 66e6 53be bfe8 a9bf f121 8fbe
00000250: c3d1 e23d b7c1 d7bc ea38 c23e dd43 8cbd
00000260: 0a3d 81be e593 66be 439b 88be e1aa 193e
00000270: 0ac1 22be d023 d3bd cac0 e5bd 8ce6 0e3e
00000280: 1c25 db3d d4e2 62be 7360 30bc 84fb 57bd
00000290: 2806 3cbe 9bbc df3d 26ee 0abe 861d 59be
000002a0: 02ff 8e3d d134 8dbc a0f0 a83d 51a1 a1be
000002b0: 3ad2 54bd 6077 3fbd f167 483d 9f64 d23d
000002c0: 0140 21be b41c 52bd bdeb 93bd b221 4abe
000002d0: 8a8c dbbd 000e 8abc 2f16 d1bd d919 5dbc
000002e0: 8f6c 36be 8882 9bbd 34e6 e5bd 8b39 86be
000002f0: 3c65 f43d d4e9 4fbd 2e88 103e a807 e33d
00000300: 0810 103d f4df 123e b7c3 26be 9a6e 7dbd
00000310: 3312 70be 46eb 4a3e 3fd4 46bd daf6 5abe
00000320: 7eb5 cbbe 4b18 39bf fb37 b5be 68d8 a73c
00000330: 9891 31be c917 9a3e d17d 283f 502f 8bbe
00000340: 9a5b 193d bd0c 573e 556a 343f 16c6 173e
00000350: 9f91 c1be bdc7 b83e 9a1f 89bd 38f1 bebb
00000360: 7618 80bd bdec 44be 7aa9 b63e 8560 f73e
00000370: c839 82bd 8766 753c ab46 123e 454a 01bd
00000380: 2417 343e baec 1b3e fe3c 89be 8152 483e
00000390: 42d4 6d3d ab40 a5bd 1387 783f 49ce 5d3d
000003a0: c9cc 3c3e 5a28 483f ac5e 3a3d 9c61 6abe
000003b0: 2cf6 01be 14f3 22be 7a7c a9bd 9ebe 66be
000003c0: e602 953d 6fcb 823b b729 e63c bceb a4be
000003d0: ea27 30be 567f 5d3c a5a0 f43e f23e 193e
000003e0: b2bb b0bd eaa2 7fbc 4f6c 54bf 3d54 08be
000003f0: fdb6 de3d 6ff8 483e fe02 a13d ee2e e33d
-0.26140743 -0.01977113 0.07946794 0.26288638 -0.18001318 0.07848479 -0.5410085 0.119131655
-0.13121401 0.14533459 1.3242898 0.20664494 0.010886042 0.037915092 0.084741645 -0.16455798
0.17656514 -0.11944218 -0.078331955 0.17956796 0.11032034 -0.039720785 0.121253505 0.21287893
0.09506208 0.19076483 -0.14917544 0.04698916 -0.19919552 0.08141689 0.724029 0.376827
0.05542175 -0.012862534 -0.22133036 -0.05532434 0.08233495 -0.15591198 0.32911357 -0.06372809
0.021811444 0.059231233 -0.044343825 0.041417778 0.20327401 0.0030119345 0.09981282 -0.26278177
-0.10445133 -0.15341233 0.14848824 0.19023374 -0.06361614 0.041192766 0.086677395 -0.14331238
0.017064309 0.16119269 -0.20127495 -0.21146171 -0.31202886 0.026775518 0.039913747 -0.16461283
0.142566 -0.28010884 -0.110576235 -0.1741198 0.0644053 -0.3430799 0.18884398 -0.3261353
-0.0669028 -0.15544114 -0.08093789 0.09393477 -0.022282058 0.047580063 0.06180318 0.06577925
0.4819042 -0.062487982 -0.0983363 -0.1116979 -0.18264818 -0.66478705 0.6676274 0.16310048
-1.2131404 -0.14249384 -0.8145038 0.042792767 -0.25278318 -0.05009444 0.21466064 -0.04264381
-0.13517699 -0.011349484 -0.029914796 0.13406855 0.44320202 0.034759644 -0.06831077 -0.2146991
-0.0057946146 0.09190043 0.39729956 0.18308073 0.074658185 0.033086598 -1.0024484 -0.13729927
-0.16638137 0.15185566 -0.0903345 0.102849066 0.06537362 -0.16257675 -0.02442244 0.036685035
-0.16063805 -0.027421404 0.028937308 -0.09349093 0.1057848 -0.03323198 -0.53725606 0.19870828
0.03473911 -0.089122064 1.1273407 0.11126552 -0.09547795 -0.09561713 -0.030023444 -0.13811731
0.13608089 0.1551468 0.2416245 0.11594839 0.17633325 0.046238862 -0.029995397 0.35059142
-0.12302731 -0.20693359 -1.3274153 -0.27955583 0.11075165 -0.026337488 0.37934047 -0.068488814
-0.25241882 -0.22517355 -0.26680955 0.15006591 -0.15893951 -0.10309565 -0.11218412 0.13955134
0.107004374 -0.2215684 -0.010765183 -0.0527301 -0.18361723 0.109246455 -0.13567409 -0.21202669
0.06982233 -0.017237099 0.082490206 -0.31568387 -0.0519583 -0.046744704 0.04892725 0.10273098
-0.15747072 -0.051296905 -0.07222698 -0.19739416 -0.10720165 -0.016852379 -0.10209309 -0.013494932
-0.1781485 -0.07593256 -0.112255484 -0.26215777 0.119333714 -0.050760105 0.14114448 0.11085445
0.03517154 0.14343244 -0.16285597 -0.061873056 -0.23444442 0.19816312 -0.048542257 -0.21383229
-0.39786905 -0.72302693 -0.35394272 0.020488933 -0.17340696 0.30096272 0.6581698 -0.27184534
0.037440874 0.21000953 0.7047475 0.14821658 -0.37806413 0.36089888 -0.06695481 -0.0058270954
-0.062546656 -0.19230933 0.35676175 0.48315826 -0.06358677 0.014978058 0.1428477 -0.03156497
0.17586952 0.15227023 -0.26804346 0.19562723 0.058063753 -0.08068975 0.97081107 0.054151807
0.18437494 0.7818657 0.045500442 -0.22888798 -0.12691563 -0.1591304 -0.08275695 -0.22533652
0.072759435 0.0039915363 0.028096063 -0.322111 -0.17202726 0.013519129 0.47778812 0.14965418
-0.0862955 -0.015602807 -0.82977766 -0.13313384 0.10874746 0.1962602 0.07861899 0.110929355

bias f4 [20]
00000000: b353 773f cfde a53f c188 afbd 343b 36be
00000010: 80f7 9cbf f96b 46bf 0780 763f 1c3a 5cbe
00000020: 6642 9bbd 17eb 26be 478d c23e a91a 4a3f
00000030: 7c32 64bf 38f9 2dbe c971 eebe 0dfa bfbf
00000040: 84cc aebf aa3f 16be 7d70 f33d a7ec a93f
0.9661209 1.2958621 -0.085710056 -0.17796022 -1.2263031 -0.77508503 0.96289104 -0.21506542
-0.07581024 -0.16300617 0.3799841 0.7894693 -0.89139533 -0.169896 -0.46571186 -1.4998184
-1.3656163 -0.14672723 0.1188669 1.3275346

weight f4 [2, 20]
00000000: 6ada d53d 1e67 a63e b899 14be 4399 153e
00000010: d8bd 4abf 43f1 8c3c ed74 21bd fa65 f13d
00000020: 859f 883e 8fa0 d0bd eac9 d83e bd00 bd3d
00000030: b7e6 66be f8a5 953c 0cab 6b3c 256f 07be
00000040: f144 d0bd cce6 7bbd 48a9 643d 5c8b a93e
00000050: e091 c3bd 1c20 3f3d 21e3 c4bd 0f38 633d
00000060: 19a3 f43e a9b2 4e3e 14d9 01be 48e2 a93d
00000070: d9e9 1a3e 8191 25be 336b f3be 514c 15be
00000080: d835 a83d 72ec 0b3d 8e94 a43d 2eb9 8d3e
00000090: cb41 6f3e c0fc be3d f984 663d 7347 80be
0.1044205 0.32500547 -0.14511764 0.14609246 -0.7919593 0.017204886 -0.03941815 0.117870286
0.26684204 -0.10186874 0.42341548 0.092286564 -0.22548948 0.018267617 0.0143840425 -0.13225992
-0.101693995 -0.061499402 0.0558255 0.33114135 -0.09549308 0.04666148 -0.09613634 0.055473384
0.47780684 0.20185341 -0.12680465 0.08295113 0.15128268 -0.16168787 -0.47542724 -0.14579894
0.08213395 0.03416104 0.08036147 0.27680343 0.23364942 0.09325552 0.056279156 -0.2505451

bias f4 [2]
00000000: c5e2 6a3f 939d a1bf
0.9175227 -1.2626213
